models/transformer/defect_yolov8n.onnx (onnx, 19762 bytes, 3 tensors)

backbone.0.bias f4 [32]
0.47594997 -0.38514996 0.0064169792 -0.027486935 0.18744823 0.10461661 0.121506974 -0.10710283
0.050929196 0.027711816 -0.11332924 -0.47993082 0.3099902 -0.19860685 -0.33512953 -0.6354348
0.11405186 -0.30705887 0.06020408 -0.17551671 -0.31331217 -0.09967471 -0.62278914 -0.27503672
0.28417212 -0.11168501 -0.23107639 0.16055402 0.2222464 0.21097896 0.046987288 0.3980953
00000000: b7af f33e 6032 c5be 8645 d23b 482c e1bc
00000010: 6ef2 3f3e 3c41 d63d a6d8 f83d bb58 dbbd
00000020: 229b 503d e403 e33c 2919 e8bd 7eb9 f5be
00000030: 09b7 9e3e 985f 4bbe 1996 abbe dbab 22bf
00000040: 0694 e93d d236 9dbe 8e98 763d a7ba 33be
00000050: 746a a0be 4122 ccbd 1c6f 1fbf 9dd1 8cbe
00000060: 027f 913e 1cbb e4bd 4a9f 6cbe 4668 243e
00000070: 8f94 633e de0a 583e be75 403d 26d3 cb3e

backbone.3.bias f4 [64]
0.70457715 3.9587314 -1.6580474 3.1914954 2.9032543 -0.11630241 -3.5275984 -2.8992052
1.251623 -1.2846922 -0.51492286 2.8003669 0.6526797 -3.8093479 1.7407113 -4.27283
0.33885095 -4.6332083 -2.685057 3.3016176 -3.1811707 2.3901358 1.3271512 2.736824
1.3792403 2.6160386 0.24869934 -3.5741737 -2.2484577 -1.9581558 -0.96918684 -3.3998783
2.754448 0.860185 1.7657596 2.4230762 -3.5828826 2.4937656 0.13676655 2.1138942
-3.8588202 2.9312289 -1.6682471 1.7690253 -3.5932016 -3.2552116 -1.3191532 1.5516324
-2.8188477 0.4379236 -2.2731576 -4.266888 1.1966108 2.7667215 -1.5466706 0.33078134
3.426131 0.4009633 1.4629468 2.532485 3.4856296 0.6272816 -0.62456805 3.6608267
00000000: 2b5f 343f db5b 7d40 e63a d4bf 7641 4c40
00000010: ebce 3940 f52f eebd 2cc4 61c0 948c 39c0
00000020: 2f35 a03f cb70 a4bf fcd1 03bf 3639 3340
00000030: 0416 273f 5bcc 73c0 a1cf de3f 06bb 88c0
00000040: df7d ad3e 3e43 94c0 f9d7 2bc0 b44d 5340
00000050: 4d98 4bc0 fcf7 1840 17e0 a93f 2028 2f40
00000060: f28a b03f 2d6d 2740 0aab 7e3e 43bf 64c0
00000070: bbe6 0fc0 d9a4 fabf a11c 78bf 9b97 59c0
00000080: e048 3040 1635 5c3f 6904 e23f ae13 1b40
00000090: f34d 65c0 db99 1f40 880c 0c3e 0b4a 0740
000000a0: e9f6 76c0 4199 3b40 1f89 d5bf 6c6f e23f
000000b0: 04f7 65c0 6355 50c0 03da a8bf e49b c63f
000000c0: 0068 34c0 8637 e03e 6a7b 11c0 598a 88c0
000000d0: 8b2a 993f f711 3140 4df9 c5bf 2c5c a93e
000000e0: bb45 5b40 104b cd3e d741 bb3f 3c14 2240
000000f0: 8e14 5f40 8795 203f b1e3 1fbf fc4a 6a40

head.bias f4 [6]
-0.0066940323 0.036543176 -0.01862446 -0.037414767 0.020982388 -0.050038673
00000000: 9d59 dbbb 4cae 153d 5392 98bc 3a40 19bd
00000010: 42e3 ab3c 5af5 4cbd
