models/transformer/silica_cnn.onnx (onnx, 20383 bytes, 4 tensors)

features.0.bias f4 [32]
000000 3e 66 f6 3d f2 af fc bd 4d 10 1f be 03 a1 be 3d
       0.1203122 -0.123382464 -0.15533562 0.09308054
000010 5e b0 3d be 39 7b 72 bb 48 9e da 3d 0c 6f 32 be
       -0.1852431 -0.0036999716 0.10674721 -0.17425174
000020 92 61 3b bd 11 7e d6 3d 4c c0 79 bd bd a5 14 3e
       -0.045747347 0.10473264 -0.060974404 0.14516349
000030 92 06 c1 bd 80 b3 cf 3d 26 9b f3 bd 09 52 d7 bd
       -0.09425081 0.10141659 -0.118948266 -0.10513694
000040 e8 a5 12 be e3 63 ae bc b3 92 37 3e b7 08 04 3d
       -0.143211 -0.021287864 0.17927055 0.032234874
000050 38 d0 25 3e 19 ca cb 3b cb e3 3e 3e 48 20 c1 bc
       0.1619271 0.0062191603 0.18641584 -0.023574963
000060 3b 80 1f be 59 0b 03 3e dd a9 34 3d b3 da 58 bc
       -0.1557626 0.12797298 0.044107307 -0.013235736
000070 b5 12 ee 3b aa 15 40 3e 2c cd fe 3d ca 63 b6 3d
       0.0072654136 0.18758264 0.12441477 0.08905752

features.2.bias f4 [64]
000000 d4 7e 88 3a 2e 92 35 3d a2 d1 60 3c af 3f 03 3d
       0.0010413774 0.04432886 0.013721855 0.032043155
000010 55 52 e8 bc 8d 53 57 3d f5 20 ca 3c 34 89 06 3d
       -0.028359571 0.052569915 0.024673918 0.03284569
000020 16 a5 89 bd 19 ff 61 3d 4a a5 7d 3d e3 1e 09 bd
       -0.06720941 0.05517492 0.06192521 -0.03347672
000030 e4 ed 17 3b f2 c1 a5 3c 5a 4a 1e bd 81 72 58 bd
       0.0023182565 0.020234082 -0.038645126 -0.052843574
000040 56 c0 41 3d 11 9d 98 3c 87 5f 53 bd 1a 96 1e bd
       0.047302566 0.018629583 -0.051604774 -0.038717367
000050 18 85 0b 3d 08 06 aa bc 89 41 1a bd d6 1b 2d bd
       0.034062475 -0.020754829 -0.037660155 -0.042262875
000060 d8 00 a0 3c 38 7b 37 3c a3 ce a1 bc e3 7b 1b bd
       0.019531652 0.011198811 -0.019751852 -0.037959944
000070 90 07 59 bd 30 04 da 3c 5f cd 2e 3d 97 07 6e bc
       -0.052985728 0.026613325 0.042676326 -0.014528177
000080 66 cf 09 bd c4 0e 04 bd 14 49 69 bd 54 f3 f1 bc
       -0.033645056 -0.032240644 -0.05695446 -0.029534973
000090 dc 16 a0 bc 28 14 fd bb b7 a2 c2 bb c7 9b 4a 3c
       -0.01954215 -0.00772335 -0.0059398073 0.012366242
0000a0 a3 ed 84 bd d8 11 cb bc 09 6e e1 3b 7f 66 cd bc
       -0.06490638 -0.024788782 0.0068795723 -0.025073288
0000b0 48 e9 ce 3c 24 80 51 3c 72 4d cf bc 0d 8f 5b bd
       0.025257722 0.012786899 -0.025305483 -0.05360322
0000c0 fc a7 3a 3a 1a aa 6c bc 0d 07 a7 bb f1 97 6d bc
       0.00071203685 -0.014444852 -0.005097276 -0.014501558
0000d0 83 44 8a bd 40 d0 5d 3d 9c a0 98 bc 88 b0 46 bb
       -0.06751349 0.05415368 -0.018631272 -0.0030317623
0000e0 54 90 2f bd bb 0d 84 bd c1 f1 91 bb 05 7a f4 3c
       -0.04286225 -0.064479314 -0.004453868 0.02984334
0000f0 7c e7 76 3a e1 a8 78 3d c3 6c 62 bd 80 39 1a bd
       0.0009418649 0.06070793 -0.055279505 -0.037652493

classifier.1.bias f4 [64]
000000 8c e8 1e bc 4d 52 7d bd e7 0a bf 3b 76 31 85 bd
       -0.009698998 -0.061846066 0.005830157 -0.065035746
000010 ff 97 73 bc 58 30 4c 3c c3 0d 9e bd fe f9 91 3d
       -0.014867782 0.012462698 -0.077174686 0.0712776
000020 e3 29 c5 bd 05 a5 92 3d 6e 16 9e 3c 41 86 8f 3d
       -0.0962713 0.07160381 0.019297805 0.07008029
000030 71 e1 18 3d c8 67 00 bd 46 3f a7 3c 84 68 83 bc
       0.037324373 -0.031348974 0.020415913 -0.016041048
000040 ab 52 d7 bc f2 fa 8d bc 53 e4 48 3c 3f f8 96 bc
       -0.026284536 -0.017331574 0.012261468 -0.01842892
000050 84 47 cb ba 9e df 08 bd 17 a9 d7 bd f5 46 a5 3d
       -0.0015508984 -0.033416383 -0.10530298 0.080701746
000060 f4 21 d4 3d 74 8d 95 3d a5 90 8a bd 07 f6 6d bd
       0.103580385 0.07302371 -0.0676587 -0.058095958
000070 c0 cc 88 3d 39 cd 98 3d ed 64 a5 3d 87 3a bb bb
       0.06679678 0.07461018 0.08075891 -0.005713764
000080 fb 25 85 bc c9 27 f8 bc 1e 02 96 bc 69 76 b3 3d
       -0.016253462 -0.030292409 -0.018311556 0.08762819
000090 67 8a 82 3d 2d 7d 47 bc 0f 17 6d 3c 30 a3 5f 3d
       0.063740544 -0.01217584 0.01447083 0.054598987
0000a0 c1 12 ac 3d a2 92 88 3d 7d f3 b4 3d 93 5d 96 3d
       0.084020145 0.06668593 0.08835504 0.073420666
0000b0 a2 5f bb bc f3 fb 84 3d 3a 76 23 bb c0 b2 dd 3b
       -0.02287275 0.06493368 -0.0024942295 0.0067656934
0000c0 59 91 98 3c 3c 71 68 bd 80 ec cf bb b6 79 4e 3d
       0.018623995 -0.056748614 -0.0063453317 0.05040904
0000d0 d3 1f 80 3d 68 0b 69 3d 2f 89 c8 3c 99 a4 b8 bd
       0.0625607 0.056895643 0.024479477 -0.090157695
0000e0 d6 c1 52 bd 8c ee 56 bd e0 07 55 bd 83 cc c6 bd
       -0.051454388 -0.05247359 -0.052009463 -0.09706976
0000f0 46 8e a3 3d 3a fa 89 bd dd 49 c5 3d d4 65 8c 3d
       0.07986121 -0.0673718 0.09633229 0.0685536

classifier.4.bias f4 [4]
000000 ec ad 84 3d 87 aa d2 3c 40 5c 13 bc b4 4e a2 bd
       0.064784855 0.02571608 -0.008994162 -0.07925168
