models/transformer/silica_cnn.onnx (onnx, 20491 bytes, 4 tensors)

features.0.bias f4 [32]
0	0x3dcac572	0.09900941
1	0x3df27457	0.11838596
2	0x3d105ba5	0.03524365
3	0x3bc67cff	0.006057381
4	0xbe1cf95d	-0.153295
5	0xbc96fde3	-0.01843161
6	0x3e073249	0.13202776
7	0xbdccbc7f	-0.0999689
8	0xbe0d6d0b	-0.13811128
9	0xbe056785	-0.13027771
10	0xbe13d01d	-0.14434858
11	0x3d26a7d5	0.0406874
12	0xbe4026fb	-0.1876487
13	0x3e451a15	0.19248231
14	0xbda36226	-0.07977705
15	0x3e101c98	0.14073408
16	0xbdba2967	-0.09089928
17	0xbb091532	-0.0020917174
18	0xbd73338e	-0.05937534
19	0x3d9ab4df	0.0755403
20	0xbd93bde2	-0.07213952
21	0x3da31ecc	0.079648584
22	0xbc96ed71	-0.018423768
23	0xbdafefe8	-0.0859068
24	0x3c3e2f63	0.011607978
25	0x3e1ce970	0.15323424
26	0xbe46d6b0	-0.19417834
27	0x3e4868ce	0.1957123
28	0xbda538d8	-0.08067483
29	0x3aef2f89	0.001824842
30	0x3e1ca875	0.15298636
31	0x3abb7b4e	0.0014303715

features.2.bias f4 [64]
0	0x3c24321c	0.010021713
1	0x3d400bed	0.046886373
2	0xbcdf6ad8	-0.027272627
3	0xbd2a665b	-0.04160152
4	0xbc4334c1	-0.011914433
5	0xbd124db9	-0.035718653
6	0x3d4a7626	0.04942908
7	0xbccced47	-0.025015486
8	0x3c559788	0.013036616
9	0x3d247f21	0.040160302
10	0x3d335ad8	0.043787807
11	0xbbfdd383	-0.0077461614
12	0xbc4e90b3	-0.012607741
13	0x3d06b717	0.03288945
14	0xbd00cbfb	-0.03144453
15	0x3d1f713b	0.038926344
16	0x3d451016	0.048111044
17	0xbd6902ed	-0.056887556
18	0xbbf88a2b	-0.0075848303
19	0xbcc1ccdf	-0.02365726
20	0xbbae2525	-0.0053144866
21	0xbc7881c0	-0.015167654
22	0x3cd6c591	0.026217254
23	0x3c77ef69	0.015132763
24	0xbd2ad663	-0.04170836
25	0xbc762cc0	-0.015025318
26	0x3ce374ac	0.027765594
27	0x3c6e1061	0.014530272
28	0x3d054994	0.032540873
29	0xbd233c85	-0.039852638
30	0xbc9561ee	-0.018235173
31	0x3d1bc846	0.038032793
32	0x3d24daf3	0.04024787
33	0xbcb1efc3	-0.021720773
34	0xbcae0b15	-0.021245519
35	0x3c579211	0.013157384
36	0xbcff812a	-0.03118952
37	0xbd6b9175	-0.057511766
38	0xbb5f9da2	-0.0034121056
39	0x3d0ea2c9	0.034823213
40	0xbd202ca6	-0.03910508
41	0xbc800a55	-0.015629927
42	0x3d13b144	0.036057726
43	0x3ca0f412	0.019647632
44	0xbcc294da	-0.023752619
45	0xbcb482e3	-0.022035068
46	0xbcf1fbf4	-0.029539086
47	0xbd7c2135	-0.061555106
48	0xbd6c7196	-0.05772551
49	0x3d24ce3b	0.04023574
50	0xbcaebba6	-0.021329712
51	0xbd3d615f	-0.04623544
52	0x3cb76bf4	0.022390343
53	0x3bb5e3ec	0.005550852
54	0xbd73199c	-0.059350595
55	0x3d7cabc3	0.061687242
56	0xbcbe44dd	-0.023226196
57	0xbc57d946	-0.013174361
58	0xbcf9efbf	-0.030509828
59	0xbc98669d	-0.018603617
60	0xbd882f30	-0.06649625
61	0x3d4713cd	0.048602868
62	0x3c883292	0.016625676
63	0xbd36df60	-0.04464662

classifier.1.bias f4 [64]
0	0x3d41923b	0.047258597
1	0x3c8fab1c	0.017537646
2	0xbdc1d664	-0.0946472
3	0xbcbee5dd	-0.023302967
4	0x3d40304c	0.04692106
5	0xbb524e9d	-0.0032090314
6	0x3da56fdd	0.08077977
7	0xbd89f2ef	-0.06735789
8	0x3cb9ba7d	0.022671932
9	0xbba7d9bb	-0.005122391
10	0xbcbd16c3	-0.023082143
11	0x3d9e262e	0.07722126
12	0xbd73424c	-0.059389398
13	0xbc13d5db	-0.009023155
14	0xbc80f68a	-0.015742559
15	0x3d37e2c6	0.044894002
16	0xbc6c168a	-0.014409671
17	0xbd36f04d	-0.044662762
18	0xbd812a5b	-0.06306907
19	0xbd594620	-0.053045392
20	0xbbfcaed2	-0.00771127
21	0xbd72089c	-0.05909024
22	0xbd880589	-0.06641681
23	0x3d3071ae	0.043077163
24	0xbd1e3bcd	-0.03863125
25	0xbd209dc3	-0.039212953
26	0xbdcb4298	-0.09924811
27	0x3bcfa792	0.0063371146
28	0x3d984030	0.07434118
29	0xbc959de0	-0.018263757
30	0xbc92db35	-0.017926792
31	0x3da9aaf9	0.082845636
32	0xbbb3da04	-0.005488636
33	0x3d002914	0.031289175
34	0x3dcc2bbd	0.0996928
35	0x3abbcba9	0.0014327663
36	0xbd875b9b	-0.06609269
37	0xbda93a58	-0.08263081
38	0x3cd65442	0.026163224
39	0x3dc416bc	0.09574649
40	0x3d7e76f9	0.06212518
41	0xbc0cfc30	-0.008605048
42	0x3dc568f8	0.09639162
43	0xbbd552c3	-0.00651011
44	0xbd9a4ce7	-0.07534199
45	0xbcbbe030	-0.02293405
46	0xbd427f2e	-0.04748457
47	0xbc879461	-0.016550245
48	0xbd27f6f4	-0.041006997
49	0x3b5d2a98	0.0033747312
50	0xbd3976f9	-0.045279477
51	0xbd899a38	-0.06718868
52	0xbcf4170e	-0.02979615
53	0x3cd2256a	0.025652606
54	0xbc810320	-0.01574856
55	0xbdaadf41	-0.083433636
56	0xbc81f7a2	-0.01586515
57	0x3d334061	0.04376257
58	0xbcce1ea1	-0.02516109
59	0xbd826ae2	-0.063680425
60	0xbd9635ba	-0.07334466
61	0x3d2fd9ce	0.042932324
62	0xbcf3459c	-0.029696278
63	0x3da7704c	0.08175716

classifier.4.bias f4 [4]
0	0xbd9b0466	-0.07569198
1	0x3daa3fde	0.08312963
2	0xbda4118a	-0.08011158
3	0xbd4f5c9e	-0.050625436
