models/transformer/thermal_anomaly.onnx (onnx, 20408 bytes, 4 tensors)

features.0.bias f4 [32]
0.18015985 0.042183187 -0.15809299 0.21359369 -0.009894398 0.22233951 0.097566865 0.083987944
0.00413948 -0.214757 0.16798575 -0.09955929 0.11076332 -0.109610856 0.17003317 0.1724965
0.01412601 0.14865872 0.071342625 0.14412825 0.08495146 0.15560497 -0.089126766 0.07202691
-0.16830876 -0.07577958 -0.08363313 0.101738185 0.055691976 -0.18329419 -0.17460498 0.20496629
00000000: d37b 383e 47c8 2c3d 21e3 21be 4eb8 5a3e
00000010: 1d1c 22bc f8ac 633e 23d1 c73d df01 ac3d
00000020: 7aa4 873b 42e9 5bbe 7504 2c3e bee5 cbbd
00000030: e1d7 e23d a87b e0bd 2d1d 2e3e eca2 303e
00000040: c870 673c fe39 183e 151c 923d 5b96 133e
00000050: 08fb ad3d e956 1f3e 1888 b6bd d882 933d
00000060: 2259 2cbe 5332 9bbd d947 abbd 1c5c d03d
00000070: 451d 643d 79b1 3bbe a6cb 32be afe2 513e

features.2.bias f4 [64]
-0.006047159 0.0036488143 -0.060898226 0.039621186 0.033639688 -0.025861168 0.0383543 -0.064843334
-0.038278818 0.049845736 -0.027537355 -0.044165794 0.017406305 -0.025787212 -0.04784141 0.03706395
-0.034940593 0.019967498 -0.014097954 0.014210099 0.019516366 0.041040998 0.01288625 0.023331566
0.008373817 0.03706498 -0.066057555 0.0055536977 0.036533482 0.021052076 -0.054092057 0.035717223
0.041719183 -0.06442841 -0.05089032 -0.047231525 0.031398073 0.021488389 -0.016294543 0.022407223
0.02510006 -0.045795906 -0.014125258 -0.0077611706 -0.019319678 0.021131987 0.024346108 -0.006884905
-0.061037865 -0.043213956 0.012947666 -0.0233979 0.032645762 -0.0014309813 0.0027028646 0.016943607
-0.024345828 -0.057974968 -0.017602857 -0.015816817 -0.010037444 -0.024534488 -0.023815302 0.07315931
00000000: 3f27 c6bb f220 6f3b 6b70 79bd d349 223d
00000010: c5c9 093d cdda d3bc 6619 1d3d 95cc 84bd
00000020: 40ca 1cbd 0b2b 4c3d 0596 e1bc 31e7 34bd
00000030: ab97 8e3c b43f d3bc 5bf5 43bd 5ed0 173d
00000040: de1d 0fbd e192 a33c 1bfb 66bc 7ad1 683c
00000050: c9e0 9f3c 9b1a 283d da20 533c d721 bf3c
00000060: 5632 093c 73d1 173d 2f49 87bd cbfb b53b
00000070: 22a4 153d 6775 ac3c a28f 5dbd 394c 123d
00000080: bce1 2a3d 0bf3 83bd 5e72 50bd d875 41bd
00000090: 449b 003d 6b08 b03c 227c 85bc 5a8f b73c
000000a0: a49e cd3c 7d94 3bbd a06d 67bc 6b51 febb
000000b0: 4d44 9ebc fd1c ad3c 7d71 c73c c59a e1bb
000000c0: d702 7abd 1e01 31bd 7322 543c f4ac bfbc
000000d0: 90b7 053d c48f bbba 8b22 313b 52cd 8a3c
000000e0: e770 c7bc 2977 6dbd de33 90bc 4592 81bc
000000f0: 1774 24bc 8dfc c8bc 4f18 c3bc 8cd4 953d

classifier.1.bias f4 [64]
-0.06745259 0.07242689 -0.012223561 0.08164823 0.03090892 -0.053194445 -0.045328777 -0.06920052
-0.0846629 -0.04042868 0.004482212 0.002938866 -0.0043848353 0.030138575 -0.067380324 -0.08278593
-0.014064642 0.044838604 0.01583967 -0.069083475 0.097296685 -0.089391895 0.043358177 -0.07872878
0.07968495 0.11357706 0.014474069 0.09205192 0.034477994 0.046837565 0.06596781 -0.03708359
0.07067878 -0.052920014 0.0013829669 -0.01721208 -0.07068357 0.03420757 -0.08060155 -0.07893448
0.018498654 -0.0821354 0.02481363 0.06391904 -0.02550383 -0.021454284 0.054059464 0.014565712
-0.03732861 -0.047236253 0.07856828 -0.039271057 0.066102885 -0.06954756 0.050274894 -0.038570054
-0.008124142 -0.044489734 0.052252766 0.044085726 0.0069733784 0.050046045 0.06396928 -0.047400407
00000000: 9524 8abd 8d54 943d 5545 48bc 3037 a73d
00000010: b434 fd3c 6be2 59bd abaa 39bd 01b9 8dbd
00000020: be63 adbd 8b98 25bd 85df 923b fd99 403b
00000030: aaae 8fbb 2ce5 f63c b2fe 89bd ab8b a9bd
00000040: 626f 66bc afa8 373d 32c2 813c a37b 8dbd
00000050: 7c43 c73d 1913 b7bd 5898 313d 8e3c a1bd
00000060: dd31 a33d 179b e83d a524 6d3c b885 bc3d
00000070: cc38 0d3d bfd8 3f3d 221a 873d f6e4 17bd
00000080: 09c0 903d a8c2 58bd ab44 b53a 5900 8dbc
00000090: 8cc2 90bd 3d1d 0c3d 6d12 a5bd 67a8 a1bd
000000a0: 7d8a 973c 9b36 a8bd f445 cb3c fce7 823d
000000b0: 68ed d0bc e5c0 afbc 756d 5d3d 06a5 6e3c
000000c0: e2e5 18bd cd7a 41bd 68e8 a03d b0da 20bd
000000d0: f360 873d f36e 8ebd 0ced 4d3d a2fb 1dbd
000000e0: 1f1b 05bc de3a 36bd ff06 563d 3c93 343d
000000f0: f080 e43b 15fd 4c3d 5302 833d ee26 42bd

classifier.4.bias f4 [3]
0.059963513 0.13077575 -0.07769848
00000000: 4d9c 753d 14ea 053e 6120 9fbd
