models/switch/switch_yolov8s.onnx (onnx, 19770 bytes, 3 tensors)

backbone.0.bias f4 [32]
0	0xbdb6c1b8	-0.08923668
1	0x3bb92290	0.005649872
2	0xbe3babfc	-0.18327326
3	0xbe6aa71a	-0.22915307
4	0x3e99c771	0.30034974
5	0xbe7e7141	-0.2484789
6	0xbedad19f	-0.42738053
7	0x3f26c21d	0.65139943
8	0xbe9e6a29	-0.3094037
9	0x3e99b6f5	0.30022398
10	0xbe956527	-0.29178736
11	0xbd2e6366	-0.042575262
12	0xbe90f593	-0.28312358
13	0x3eb0a89f	0.34503648
14	0xbf2a6532	-0.6656066
15	0x3ead2d77	0.3382375
16	0xbd844c1b	-0.064598285
17	0x3e899b36	0.2687623
18	0x3f1c1356	0.60967004
19	0xbc8d109c	-0.017219834
20	0xbcb991ca	-0.022652525
21	0xbf221022	-0.63305867
22	0xbe3e14d4	-0.18562633
23	0x3e4523df	0.19251965
24	0x3eee3a1e	0.46528715
25	0x3da91f74	0.08257952
26	0x3ebc632e	0.36794418
27	0xbe9866de	-0.2976598
28	0xbd86c241	-0.0658002
29	0xbe9004bf	-0.2812862
30	0x3df639dc	0.120227545
31	0x3d028766	0.031867407

backbone.3.bias f4 [64]
0	0x4002f6b5	2.0463078
1	0x403508a2	2.828652
2	0x40079dc3	2.119004
3	0xc052b25d	-3.2921364
4	0x3fe8aa0a	1.8176892
5	0x3fa8a7a4	1.317616
6	0xc04381e9	-3.054804
7	0xc05bee66	-3.4364257
8	0x403978ff	2.89801
9	0xc0074f1c	-2.1142035
10	0xbebe0653	-0.371142
11	0x402de571	2.717129
12	0x40151822	2.329598
13	0xbf605dca	-0.8764311
14	0xc0514baa	-3.2702432
15	0xc03a7a7e	-2.9137263
16	0x3eccb92d	0.39985028
17	0x3fcc0268	1.5938234
18	0xbf2dac5a	-0.6784111
19	0xc086b686	-4.2097807
20	0xbfc52424	-1.5401654
21	0xc02f941e	-2.7434154
22	0x40658f8c	3.5868864
23	0x400fbc58	2.2458706
24	0x3fb84e31	1.4398862
25	0x3fcbe2e2	1.5928614
26	0xbfa3525e	-1.2759511
27	0x400d4c60	2.2077866
28	0x3ef1d297	0.4723098
29	0x401196e4	2.2748346
30	0x3efd3bc5	0.49459663
31	0x402ed691	2.731846
32	0x3db15d68	0.08660394
33	0xbfbec2cc	-1.4903197
34	0xbf87eeb7	-1.0619725
35	0x3fc0b2db	1.5054582
36	0x3f5b673b	0.8570439
37	0xbfddeeff	-1.7338561
38	0xbfc44a24	-1.5335126
39	0x4048d7ba	3.138167
40	0x3fd72f17	1.6811246
41	0xbfd71fe2	-1.6806605
42	0x40044725	2.0668423
43	0xbee37913	-0.4442831
44	0xc01ad2d8	-2.419119
45	0xbfbc2c7f	-1.4701079
46	0x403c5daa	2.9432168
47	0x3f9369ab	1.1516622
48	0x3fba004e	1.4531343
49	0x3fed8ff8	1.8559561
50	0xc06c7dcf	-3.6951787
51	0x40245c53	2.568135
52	0x404ae96d	3.1704972
53	0xc02e2345	-2.7209027
54	0xbf0611a6	-0.5237068
55	0xbf897bc4	-1.0740895
56	0x3fa3b356	1.2789104
57	0x4073f380	3.811737
58	0xc05ad6c6	-3.4193587
59	0xbd080d4e	-0.033215813
60	0x3eb0ca46	0.34529322
61	0x40301b8e	2.7516818
62	0xbfed25a2	-1.852711
63	0xc03ca288	-2.9474201

head.bias f4 [8]
0	0x3ba1d07f	0.0049381847
1	0x3cc4cb2a	0.024022657
2	0x3cd3904d	0.025825644
3	0xbcdfa11e	-0.027298506
4	0x3b6339a9	0.003467182
5	0x3c2bdfd4	0.0104903765
6	0xbd2b44fb	-0.04181383
7	0xbdad662e	-0.08466755
